____________________________________________________________________________________________________
Layer (type)                     Output Shape          Param #     Connected to                     
====================================================================================================
convolution2d_1 (Convolution2D)  (None, 64, 64, 16)    448         convolution2d_input_1[0][0]      
____________________________________________________________________________________________________
activation_1 (Activation)        (None, 64, 64, 16)    0           convolution2d_1[0][0]            
____________________________________________________________________________________________________
maxpooling2d_1 (MaxPooling2D)    (None, 32, 32, 16)    0           activation_1[0][0]               
____________________________________________________________________________________________________
convolution2d_2 (Convolution2D)  (None, 32, 32, 16)    2320        maxpooling2d_1[0][0]             
____________________________________________________________________________________________________
activation_2 (Activation)        (None, 32, 32, 16)    0           convolution2d_2[0][0]            
____________________________________________________________________________________________________
maxpooling2d_2 (MaxPooling2D)    (None, 16, 16, 16)    0           activation_2[0][0]               
____________________________________________________________________________________________________
convolution2d_3 (Convolution2D)  (None, 16, 16, 32)    4640        maxpooling2d_2[0][0]             
____________________________________________________________________________________________________
activation_3 (Activation)        (None, 16, 16, 32)    0           convolution2d_3[0][0]            
____________________________________________________________________________________________________
convolution2d_4 (Convolution2D)  (None, 16, 16, 32)    9248        activation_3[0][0]               
____________________________________________________________________________________________________
activation_4 (Activation)        (None, 16, 16, 32)    0           convolution2d_4[0][0]            
____________________________________________________________________________________________________
maxpooling2d_3 (MaxPooling2D)    (None, 8, 8, 32)      0           activation_4[0][0]               
____________________________________________________________________________________________________
dropout_1 (Dropout)              (None, 8, 8, 32)      0           maxpooling2d_3[0][0]             
____________________________________________________________________________________________________
convolution2d_5 (Convolution2D)  (None, 8, 8, 64)      18496       dropout_1[0][0]                  
____________________________________________________________________________________________________
activation_5 (Activation)        (None, 8, 8, 64)      0           convolution2d_5[0][0]            
____________________________________________________________________________________________________
convolution2d_6 (Convolution2D)  (None, 8, 8, 64)      36928       activation_5[0][0]               
____________________________________________________________________________________________________
activation_6 (Activation)        (None, 8, 8, 64)      0           convolution2d_6[0][0]            
____________________________________________________________________________________________________
maxpooling2d_4 (MaxPooling2D)    (None, 4, 4, 64)      0           activation_6[0][0]               
____________________________________________________________________________________________________
dropout_2 (Dropout)              (None, 4, 4, 64)      0           maxpooling2d_4[0][0]             
____________________________________________________________________________________________________
convolution2d_7 (Convolution2D)  (None, 4, 4, 128)     73856       dropout_2[0][0]                  
____________________________________________________________________________________________________
activation_7 (Activation)        (None, 4, 4, 128)     0           convolution2d_7[0][0]            
____________________________________________________________________________________________________
convolution2d_8 (Convolution2D)  (None, 2, 2, 128)     147584      activation_7[0][0]               
____________________________________________________________________________________________________
activation_8 (Activation)        (None, 2, 2, 128)     0           convolution2d_8[0][0]            
____________________________________________________________________________________________________
maxpooling2d_5 (MaxPooling2D)    (None, 1, 1, 128)     0           activation_8[0][0]               
____________________________________________________________________________________________________
dropout_3 (Dropout)              (None, 1, 1, 128)     0           maxpooling2d_5[0][0]             
____________________________________________________________________________________________________
flatten_1 (Flatten)              (None, 128)           0           dropout_3[0][0]                  
____________________________________________________________________________________________________
dense_1 (Dense)                  (None, 128)           16512       flatten_1[0][0]                  
____________________________________________________________________________________________________
dropout_4 (Dropout)              (None, 128)           0           dense_1[0][0]                    
____________________________________________________________________________________________________
dense_2 (Dense)                  (None, 96)            12384       dropout_4[0][0]                  
____________________________________________________________________________________________________
dropout_5 (Dropout)              (None, 96)            0           dense_2[0][0]                    
____________________________________________________________________________________________________
dense_3 (Dense)                  (None, 64)            6208        dropout_5[0][0]                  
____________________________________________________________________________________________________
dense_4 (Dense)                  (None, 10)            650         dense_3[0][0]                    
____________________________________________________________________________________________________
dense_5 (Dense)                  (None, 2)             22          dense_4[0][0]                    
====================================================================================================
Total params: 329,296
Trainable params: 329,296
Non-trainable params: 0


334336/334589 [============================>.] - ETA: 0s - loss: 0.0643Epoch 00000: val_loss improved from inf to 0.04601, saving model to model.00-0.05.h5
334589/334589 [==============================] - 64s - loss: 0.0643 - val_loss: 0.0460
…
